nohup: ignoring input
####################################
메모: PrimeK-Net 재현성 테스트
####################################

Initializing Training Process..
Batch size per GPU : 2
LKFCA_Net(
  (dense_encoder): DenseEncoder(
    (dense_conv_1): Sequential(
      (0): Conv2d(2, 64, kernel_size=(1, 1), stride=(1, 1))
      (1): InstanceNorm2d(64, eps=1e-05, momentum=0.1, affine=True, track_running_stats=False)
      (2): PReLU(num_parameters=64)
    )
    (dense_block): DS_DDB(
      (dense_block): ModuleList(
        (0): Sequential(
          (0): Conv2d(64, 64, kernel_size=(3, 3), stride=(1, 1), padding=(1, 1), groups=64)
          (1): Conv2d(64, 64, kernel_size=(1, 1), stride=(1, 1))
          (2): InstanceNorm2d(64, eps=1e-05, momentum=0.1, affine=True, track_running_stats=False)
          (3): PReLU(num_parameters=64)
        )
        (1): Sequential(
          (0): Conv2d(128, 128, kernel_size=(3, 3), stride=(1, 1), padding=(2, 1), dilation=(2, 1), groups=128)
          (1): Conv2d(128, 64, kernel_size=(1, 1), stride=(1, 1))
          (2): InstanceNorm2d(64, eps=1e-05, momentum=0.1, affine=True, track_running_stats=False)
          (3): PReLU(num_parameters=64)
        )
        (2): Sequential(
          (0): Conv2d(192, 192, kernel_size=(3, 3), stride=(1, 1), padding=(4, 1), dilation=(4, 1), groups=192)
          (1): Conv2d(192, 64, kernel_size=(1, 1), stride=(1, 1))
          (2): InstanceNorm2d(64, eps=1e-05, momentum=0.1, affine=True, track_running_stats=False)
          (3): PReLU(num_parameters=64)
        )
        (3): Sequential(
          (0): Conv2d(256, 256, kernel_size=(3, 3), stride=(1, 1), padding=(8, 1), dilation=(8, 1), groups=256)
          (1): Conv2d(256, 64, kernel_size=(1, 1), stride=(1, 1))
          (2): InstanceNorm2d(64, eps=1e-05, momentum=0.1, affine=True, track_running_stats=False)
          (3): PReLU(num_parameters=64)
        )
      )
    )
    (dense_conv_2): Sequential(
      (0): Conv2d(64, 64, kernel_size=(1, 3), stride=(1, 2))
      (1): InstanceNorm2d(64, eps=1e-05, momentum=0.1, affine=True, track_running_stats=False)
      (2): PReLU(num_parameters=64)
    )
  )
  (LKFCAnet): ModuleList(
    (0-3): 4 x TS_BLOCK(
      (time): GPFCA(
        (naf_blocks): ModuleList(
          (0-1): 2 x LKFCA_Block(
            (conv1): Conv1d(64, 128, kernel_size=(1,), stride=(1,))
            (conv2): Conv1d(128, 128, kernel_size=(3,), stride=(1,), padding=(1,), groups=128)
            (conv3): Conv1d(64, 64, kernel_size=(1,), stride=(1,))
            (sca): Sequential(
              (0): AdaptiveAvgPool1d(output_size=1)
              (1): Conv1d(64, 64, kernel_size=(1,), stride=(1,))
            )
            (sg): SimpleGate()
            (norm1): LayerNorm1d()
            (norm2): LayerNorm1d()
            (dropout1): Identity()
            (GCGFN): GCGFN(
              (norm): LayerNorm1d()
              (LKA9): Sequential(
                (0): Conv1d(64, 64, kernel_size=(31,), stride=(1,), padding=(15,), groups=64)
                (1): Conv1d(64, 64, kernel_size=(1,), stride=(1,))
              )
              (LKA7): Sequential(
                (0): Conv1d(64, 64, kernel_size=(23,), stride=(1,), padding=(11,), groups=64)
                (1): Conv1d(64, 64, kernel_size=(1,), stride=(1,))
              )
              (LKA5): Sequential(
                (0): Conv1d(64, 64, kernel_size=(11,), stride=(1,), padding=(5,), groups=64)
                (1): Conv1d(64, 64, kernel_size=(1,), stride=(1,))
              )
              (LKA3): Sequential(
                (0): Conv1d(64, 64, kernel_size=(3,), stride=(1,), padding=(1,), groups=64)
                (1): Conv1d(64, 64, kernel_size=(1,), stride=(1,))
              )
              (X3): Conv1d(64, 64, kernel_size=(3,), stride=(1,), padding=(1,), groups=64)
              (X5): Conv1d(64, 64, kernel_size=(11,), stride=(1,), padding=(5,), groups=64)
              (X7): Conv1d(64, 64, kernel_size=(23,), stride=(1,), padding=(11,), groups=64)
              (X9): Conv1d(64, 64, kernel_size=(31,), stride=(1,), padding=(15,), groups=64)
              (proj_first): Sequential(
                (0): Conv1d(64, 256, kernel_size=(1,), stride=(1,))
              )
              (proj_last): Sequential(
                (0): Conv1d(256, 64, kernel_size=(1,), stride=(1,))
              )
            )
          )
        )
        (Rearrange1): Rearrange('b n c -> b c n')
        (Rearrange2): Rearrange('b c n -> b n c')
      )
      (freq): GPFCA(
        (naf_blocks): ModuleList(
          (0-1): 2 x LKFCA_Block(
            (conv1): Conv1d(64, 128, kernel_size=(1,), stride=(1,))
            (conv2): Conv1d(128, 128, kernel_size=(3,), stride=(1,), padding=(1,), groups=128)
            (conv3): Conv1d(64, 64, kernel_size=(1,), stride=(1,))
            (sca): Sequential(
              (0): AdaptiveAvgPool1d(output_size=1)
              (1): Conv1d(64, 64, kernel_size=(1,), stride=(1,))
            )
            (sg): SimpleGate()
            (norm1): LayerNorm1d()
            (norm2): LayerNorm1d()
            (dropout1): Identity()
            (GCGFN): GCGFN(
              (norm): LayerNorm1d()
              (LKA9): Sequential(
                (0): Conv1d(64, 64, kernel_size=(31,), stride=(1,), padding=(15,), groups=64)
                (1): Conv1d(64, 64, kernel_size=(1,), stride=(1,))
              )
              (LKA7): Sequential(
                (0): Conv1d(64, 64, kernel_size=(23,), stride=(1,), padding=(11,), groups=64)
                (1): Conv1d(64, 64, kernel_size=(1,), stride=(1,))
              )
              (LKA5): Sequential(
                (0): Conv1d(64, 64, kernel_size=(11,), stride=(1,), padding=(5,), groups=64)
                (1): Conv1d(64, 64, kernel_size=(1,), stride=(1,))
              )
              (LKA3): Sequential(
                (0): Conv1d(64, 64, kernel_size=(3,), stride=(1,), padding=(1,), groups=64)
                (1): Conv1d(64, 64, kernel_size=(1,), stride=(1,))
              )
              (X3): Conv1d(64, 64, kernel_size=(3,), stride=(1,), padding=(1,), groups=64)
              (X5): Conv1d(64, 64, kernel_size=(11,), stride=(1,), padding=(5,), groups=64)
              (X7): Conv1d(64, 64, kernel_size=(23,), stride=(1,), padding=(11,), groups=64)
              (X9): Conv1d(64, 64, kernel_size=(31,), stride=(1,), padding=(15,), groups=64)
              (proj_first): Sequential(
                (0): Conv1d(64, 256, kernel_size=(1,), stride=(1,))
              )
              (proj_last): Sequential(
                (0): Conv1d(256, 64, kernel_size=(1,), stride=(1,))
              )
            )
          )
        )
        (Rearrange1): Rearrange('b n c -> b c n')
        (Rearrange2): Rearrange('b c n -> b n c')
      )
    )
  )
  (mask_decoder): MaskDecoder(
    (dense_block): DS_DDB(
      (dense_block): ModuleList(
        (0): Sequential(
          (0): Conv2d(64, 64, kernel_size=(3, 3), stride=(1, 1), padding=(1, 1), groups=64)
          (1): Conv2d(64, 64, kernel_size=(1, 1), stride=(1, 1))
          (2): InstanceNorm2d(64, eps=1e-05, momentum=0.1, affine=True, track_running_stats=False)
          (3): PReLU(num_parameters=64)
        )
        (1): Sequential(
          (0): Conv2d(128, 128, kernel_size=(3, 3), stride=(1, 1), padding=(2, 1), dilation=(2, 1), groups=128)
          (1): Conv2d(128, 64, kernel_size=(1, 1), stride=(1, 1))
          (2): InstanceNorm2d(64, eps=1e-05, momentum=0.1, affine=True, track_running_stats=False)
          (3): PReLU(num_parameters=64)
        )
        (2): Sequential(
          (0): Conv2d(192, 192, kernel_size=(3, 3), stride=(1, 1), padding=(4, 1), dilation=(4, 1), groups=192)
          (1): Conv2d(192, 64, kernel_size=(1, 1), stride=(1, 1))
          (2): InstanceNorm2d(64, eps=1e-05, momentum=0.1, affine=True, track_running_stats=False)
          (3): PReLU(num_parameters=64)
        )
        (3): Sequential(
          (0): Conv2d(256, 256, kernel_size=(3, 3), stride=(1, 1), padding=(8, 1), dilation=(8, 1), groups=256)
          (1): Conv2d(256, 64, kernel_size=(1, 1), stride=(1, 1))
          (2): InstanceNorm2d(64, eps=1e-05, momentum=0.1, affine=True, track_running_stats=False)
          (3): PReLU(num_parameters=64)
        )
      )
    )
    (mask_conv): Sequential(
      (0): ConvTranspose2d(64, 64, kernel_size=(1, 3), stride=(1, 2))
      (1): Conv2d(64, 1, kernel_size=(1, 1), stride=(1, 1))
      (2): InstanceNorm2d(1, eps=1e-05, momentum=0.1, affine=True, track_running_stats=False)
      (3): PReLU(num_parameters=1)
      (4): Conv2d(1, 1, kernel_size=(1, 1), stride=(1, 1))
    )
    (lsigmoid): LearnableSigmoid_2d()
  )
  (phase_decoder): PhaseDecoder(
    (dense_block): DS_DDB(
      (dense_block): ModuleList(
        (0): Sequential(
          (0): Conv2d(64, 64, kernel_size=(3, 3), stride=(1, 1), padding=(1, 1), groups=64)
          (1): Conv2d(64, 64, kernel_size=(1, 1), stride=(1, 1))
          (2): InstanceNorm2d(64, eps=1e-05, momentum=0.1, affine=True, track_running_stats=False)
          (3): PReLU(num_parameters=64)
        )
        (1): Sequential(
          (0): Conv2d(128, 128, kernel_size=(3, 3), stride=(1, 1), padding=(2, 1), dilation=(2, 1), groups=128)
          (1): Conv2d(128, 64, kernel_size=(1, 1), stride=(1, 1))
          (2): InstanceNorm2d(64, eps=1e-05, momentum=0.1, affine=True, track_running_stats=False)
          (3): PReLU(num_parameters=64)
        )
        (2): Sequential(
          (0): Conv2d(192, 192, kernel_size=(3, 3), stride=(1, 1), padding=(4, 1), dilation=(4, 1), groups=192)
          (1): Conv2d(192, 64, kernel_size=(1, 1), stride=(1, 1))
          (2): InstanceNorm2d(64, eps=1e-05, momentum=0.1, affine=True, track_running_stats=False)
          (3): PReLU(num_parameters=64)
        )
        (3): Sequential(
          (0): Conv2d(256, 256, kernel_size=(3, 3), stride=(1, 1), padding=(8, 1), dilation=(8, 1), groups=256)
          (1): Conv2d(256, 64, kernel_size=(1, 1), stride=(1, 1))
          (2): InstanceNorm2d(64, eps=1e-05, momentum=0.1, affine=True, track_running_stats=False)
          (3): PReLU(num_parameters=64)
        )
      )
    )
    (phase_conv): Sequential(
      (0): ConvTranspose2d(64, 64, kernel_size=(1, 3), stride=(1, 2))
      (1): InstanceNorm2d(64, eps=1e-05, momentum=0.1, affine=True, track_running_stats=False)
      (2): PReLU(num_parameters=64)
    )
    (phase_conv_r): Conv2d(64, 1, kernel_size=(1, 1), stride=(1, 1))
    (phase_conv_i): Conv2d(64, 1, kernel_size=(1, 1), stride=(1, 1))
  )
)
Generator Parameters :  1410641
checkpoints directory :  64-4-CONMETRIC-VBDEMAND
Epoch: 1
Steps : 0, Gen Loss: 1.749, Disc Loss: 0.699, Metric loss: 0.182, Magnitude Loss : 0.110, Phase Loss : 4.676, Complex Loss : 0.989, Con_Complex Loss : 0.404, Time Loss : 0.609, s/b : 4.055
Steps : 5, Gen Loss: 1.688, Disc Loss: 0.857, Metric loss: 0.604, Magnitude Loss : 0.172, Phase Loss : 4.219, Complex Loss : 1.054, Con_Complex Loss : 0.264, Time Loss : 0.560, s/b : 1.170
…
